full_model.pth (torch, 236898 bytes, 19 tensors)

weight f4 [256, 52]
00000000: 2832 873b 81ab a7bf c5dd 57c0 5bd7 973e
00000010: e725 1f3f 8646 493c 8ecc efbe 62f1 b740
00000020: 177e debe 5c1f b9be 9830 733f e05b f03e
00000030: d566 bc3d 277e 2cbd d8bb 85bf 7f4b 1bbe
00000040: b57a f33f 4954 bfbf 484c 1d3e c143 593f
00000050: 0576 563f e9f4 22be 61a7 783e 9aa8 26bf
00000060: 3630 11bf 8817 443e 0258 d1bd 3dee 54c0
00000070: ca22 8040 8697 6c3e db54 b440 5fac d6ba
00000080: 0a68 ab3e a0d8 9b3f c8ad 143f 3370 bf3f
00000090: 1bd3 8bbf 935f dcbf 4642 6b3d e5ca c83e
000000a0: 70c7 8bbe d7a0 d03e 61a1 06c1 aed9 eabe
000000b0: 1383 4b3e 101c 27c0 5c14 9d3f c8af 3c3f
000000c0: bb9c b240 3559 b7bf 9d4a 6340 8bde cb40
000000d0: f77c 563e 126c 9bbe fd53 1ec0 c755 26bf
000000e0: dbe4 08c0 7056 94bd 9359 e93f 4e40 483f
000000f0: 7cbf 0b3e 16a4 fdbb 2f8b 093e ec56 93bd
00000100: eeac 883d 3c13 0ebd a985 22bc a955 0a3d
00000110: ea59 dc3d 61d4 33bf 62e1 673e 98b4 0b3f
00000120: 825d 453f 3312 da3d 0c41 84bd 52d2 d53d
00000130: 4d3e 933f d498 c4bb 31ee 8abf 8158 91bf
00000140: 4f29 c03f 06fa 973c 4903 013f 13a5 6ebc
00000150: 6b14 cd3c 7489 26bf 810d bd3b b0bc 71be
00000160: 0001 0b3f 0428 11bf 9c21 893d 80b2 213e
00000170: f705 f6bd 892f dabe a65f 98bf c26a f7bc
00000180: 24ee e0be 59d1 23c0 1b4a 333f 7371 cd3f
00000190: 06eb d43f 6fb5 60bf b56d 2c3f 31a5 b23d
000001a0: 5633 d23a b6d7 323b f25e 2341 4952 0bc0
000001b0: 5fb2 94c0 e979 003d 4f01 5740 92c4 b040
000001c0: 7f90 03c0 4adb b3be 91c2 313f 58cb 333e
000001d0: f69d a53e e05d d53e d0b4 493f a455 d3be
000001e0: 8dbb a5c0 18d0 5440 873b ad40 d798 3840
000001f0: a401 b1bf 382c f0bc c886 24bf 836e 02c0
00000200: 5c7b a23f 5aaa a8bf 5c85 9d40 0ddf 32c0
00000210: 9603 52bc ec53 ca3e e296 b240 3a2d cc3e
00000220: ac41 853f bdaf 4f40 d93e b4bc 51d3 0a40
00000230: 8ea1 27c1 b404 ae3f 4c4f e73f bd11 133d
00000240: 93f2 cc3d 8be9 7b40 8d01 01c1 95d7 4b3f
00000250: 09ae a23f 7b2a 0441 f14a 8a40 07a4 88c0
00000260: f326 2ec0 f38c ab40 c3bf ad3d 5a65 5240
00000270: 8007 a1bd 3846 6cbf 93f4 77c1 dea6 85be
00000280: 1aef fe3f f2b3 afbd 0c13 34bf 9a21 a1be
00000290: 709a b8bd c935 4abe d98a 493f c7f0 fbbe
000002a0: d3aa aabc e620 bcbd fba9 35c0 a96f dcbe
000002b0: 12b4 d140 13f5 5dc0 7044 66c0 2d57 81be
000002c0: 4535 2a40 61b6 963d 6715 52bd 3b04 933d
000002d0: 2cfb 89bf bab5 753e 8fac 5cc0 a5ba 9fc0
000002e0: 94eb 0341 32d0 b7be fee0 afbd 643f a63c
000002f0: bc43 21c0 1038 98c0 f44b 983e 7253 abbf
00000300: 127c 5741 584f 47c0 c47b 96be dc66 383e
00000310: 24fd 12be ec11 97bf 98ad 6e3f 95e0 27bf
00000320: 9723 50bf 5198 58c1 b0af f7c0 b446 d840
00000330: 32b3 0841 abd4 17c0 b1f8 3040 2e95 6dbf
00000340: 1f03 803a 8a59 3cbb 8f26 1041 ef7b 90bf
00000350: 24a6 61c0 4e47 d6bd a118 2d40 6e30 9340
00000360: 6d7e 06c0 3b25 a9be 60b8 3d3f f54d 003f
00000370: f0ac 3a3e bc5b b73e c7d3 793f adf9 6bbe
00000380: 9903 98c0 304e 3940 7a44 9340 246f 0d40
00000390: 03d7 aabf 26e4 b53d bfc3 8bbe fa5f 83bf
000003a0: 67ca 803f 4a6b 9cbf 4d9c 8840 fe07 f7bf
000003b0: 559b fe3f 545c cc3e cccb b640 d5f4 9c3e
000003c0: e93d f93f 220e 6a40 6266 1c3f cd63 1a40
000003d0: 11f7 46c1 3ed5 b53f 362b a63f 3483 e83d
000003e0: 23e6 8c3e 8253 3740 0950 0cc1 867d 3f3f
000003f0: 4436 953f 141b dc40 e1d5 9740 78da 67c0
0.004125852 -1.3099214 -3.3729107 0.2965649 0.6216721 0.0122848805 -0.4683575 5.7482157
-0.43455574 -0.36156738 0.94996023 0.46945095 0.09199301 -0.042112496 -1.044795 -0.15165518
1.9021822 -1.4947597 0.1536113 0.8486901 0.83773834 -0.15913738 0.242826 -0.65101016
-0.5671419 0.19149601 -0.10221864 -3.327041 4.0042467 0.23104677 5.6353583 -0.0016378275
0.33477813 1.2175484 0.5807767 1.4956115 -1.0923799 -1.7216667 0.05743625 0.39217296
-0.27300596 0.4074771 -8.414399 -0.458692 0.1987422 -2.6110878 1.2271838 0.7370572
5.581632 -1.4324099 3.551429 6.370916 0.20946108 -0.3035589 -2.4738762 -0.64974636
-2.1389682 -0.07243049 1.8230461 0.7822312 0.13647264 -0.007740508 0.13432 -0.071943134
0.06673609 -0.034686312 -0.009919562 0.0337731 0.10759337 -0.7024594 0.2264457 0.5457244
0.77095807 0.106480025 -0.06457719 0.10440506 1.1503388 -0.005999664 -1.085394 -1.1355134
1.5012606 0.018551838 0.5039564 -0.014565724 0.02503415 -0.65053487 0.005769432 -0.23607135
0.542984 -0.56701684 0.066958636 0.15790749 -0.120128565 -0.4261439 -1.190419 -0.030202273
-0.43931687 -2.5596526 0.7003495 1.6050247 1.6634223 -0.87776846 0.673549 0.08722914
0.0016037028 0.0027289218 10.21068 -2.1768973 -4.646774 0.031366263 3.3594549 5.5239954
-2.0556943 -0.35128242 0.6943751 0.17558038 0.32347077 0.41673183 0.7879152 -0.41276276
-5.1791444 3.325201 5.4135165 2.8843286 -1.3828626 -0.02931796 -0.6426816 -2.037995
1.2693896 -1.3176987 4.922529 -2.794864 -0.012818238 0.39517152 5.5809183 0.39878255
1.0410666 3.2451012 -0.022002624 2.1691477 -10.476942 1.3595185 1.8071074 0.03590559
0.10007205 3.9361293 -8.062879 0.7962583 1.2709361 8.260371 4.321648 -4.270023
-2.7211273 5.3609557 0.08483841 3.287436 -0.07862759 -0.92294645 -15.4972105 -0.26103872
1.9916718 -0.08579244 -0.70341563 -0.31470948 -0.090138316 -0.1974708 0.7872749 -0.49207136
-0.020833408 -0.091859624 -2.8384998 -0.4305394 6.5532312 -3.4680831 -3.597927 -0.25261822
2.6595013 0.07359005 -0.051289942 0.07178541 -1.0779777 0.23995104 -3.4480321 -4.9915338
8.245014 -0.35901028 -0.08587836 0.020293899 -2.5197592 -4.7568436 0.29745448 -1.338484
13.467791 -3.1142178 -0.293913 0.18007988 -0.14354378 -1.1802344 0.93233633 -0.6557706
-0.81304306 -13.537187 -7.740196 6.7586308 8.543749 -2.3723552 2.765179 -0.92805755
0.0009766555 -0.0028739893 9.009414 -1.1287822 -3.5257654 -0.10462819 2.7046282 4.599662
-2.1014664 -0.33036217 0.7410946 0.50118953 0.18230033 0.35812175 0.9758877 -0.23044463
-4.750439 2.8953972 4.602109 2.2099085 -1.3346866 0.088814065 -0.2729778 -1.0263665
1.0061768 -1.2220242 4.2690797 -1.9299314 1.9891154 0.3991419 5.7123775 0.30655542
1.9472018 3.6571126 0.61093724 2.4123414 -12.435319 1.4205701 1.2981937 0.1135315
0.2751933 2.864472 -8.76954 0.7480091 1.1657186 6.8783054 4.7448583 -3.6227093

bias f4 [256]
00000000: 24a9 0d36 7eb4 af33 4e9b cc35 f4f3 2036
00000010: 663c 08b7 6e67 ffb6 b17f 4ab5 0e60 ce36
00000020: 6fda a237 77d7 94b5 9df5 1236 0e93 9536
00000030: 4f0a b237 60d4 e135 6e7c 6ab5 2ef7 92b6
00000040: 1637 c8b6 8022 7235 31e3 3137 d766 f835
00000050: 6b45 e235 115a a238 40a6 f7b6 61cd a938
00000060: e95d a6b4 71cd 05b6 1c91 2438 1540 0bb9
00000070: 178c abb9 42a8 60b8 d883 6eb6 f247 d635
00000080: 69eb d6b8 8095 8f36 982c 8939 9575 84b9
00000090: 561c 1db8 eac1 ec36 d70a 7137 9ddd ca37
000000a0: fb38 4436 3539 39b8 eb3f 3bb7 dab0 e4b5
000000b0: 19fa e935 4f5a 0336 8968 9736 7cca 2b38
000000c0: cac2 0737 3a46 1a34 91b9 8a36 e96a 3235
000000d0: 6912 02b4 4331 4bb3 eeef ee37 b046 e736
000000e0: c272 7b37 503d 1d36 59aa 8eb7 8bf1 09b8
000000f0: 88ec ccb5 e505 df35 e427 c236 5445 a835
00000100: 8d70 c1b5 2397 c1b7 78f2 3bb7 c44d c0b5
00000110: d98b 7636 59b5 39b5 b8c3 fb38 9d96 0136
00000120: 7402 00b8 df6b 1ab8 68fe 6038 dda2 2438
00000130: f500 c1b4 a77c beb6 393e 7a36 1453 4a35
00000140: d8ee 4c37 ea0a 2d35 5daf 23b7 2af8 9137
00000150: 297a b1b8 e29f 40b4 1834 48b5 ef01 1437
00000160: 482e a736 8d89 25b8 c17d 67b4 20e4 3238
00000170: 46ad 8238 1b64 3637 6f13 b8b7 a7e4 1f37
00000180: 68eb 5634 bddf b5b8 54f3 b435 bf08 f234
00000190: bfe0 deb7 7c64 f936 c192 b1b5 d43a 1439
000001a0: ce46 0ab7 b5a2 0db7 8a2c 7bb7 814c 4e36
000001b0: bca3 d8b7 6fcf 89b7 176a cdb3 7c58 d6b5
000001c0: 97bc 6bb9 a776 29b5 4d53 af35 ee24 0137
000001d0: 975e dbb4 5ac3 6636 efa2 78b3 1a11 7835
000001e0: 47a0 32b5 efb6 3738 7a49 66b4 192b a5b6
000001f0: 70b9 66b5 3ee9 feb4 0f3a 2837 748d 4d36
00000200: 4664 4fb9 b8e9 42b6 a79f 0a36 4611 cb35
00000210: bb30 8635 964c 36b7 33e7 9135 3b1b 6ab4
00000220: d84b ad36 2ebf 3db3 e0b4 a836 285f c535
00000230: 6762 04b6 bd25 d2b7 47b7 b537 9302 b937
00000240: 98ad d6b9 4096 d1b4 e19b 7e36 ec6d 9c38
00000250: 1278 1235 b8c6 df34 1702 6536 e352 b9b6
00000260: 11d1 28b7 2884 39b6 663d 9db5 104d e235
00000270: dc13 63b6 928e 6a36 5d35 bbb5 0ad9 f5b6
00000280: 09ba 9a36 ea46 98b7 4200 f2b7 3dc8 d8b5
00000290: 99d1 e235 2708 cc33 942c 91b6 354d 32b9
000002a0: 317b f736 c2e5 58b4 838a 52b6 701c 55b9
000002b0: 5f0d a1b5 e9bd 0cb7 2797 0237 31f4 8637
000002c0: 9e29 5bb8 c99c 4036 7330 7a36 e0d7 37b7
000002d0: ee6e 3530 fdbc aeb5 7902 a436 54e3 5fb6
000002e0: d151 0f37 5420 ee37 6ca8 6c36 9d03 9e37
000002f0: a521 8537 2e15 20b9 d73a 6536 596e 0936
00000300: ac02 0ab4 a448 b838 0eb4 9436 420d ed35
00000310: 9a56 0e36 01e5 7a36 9e0f d135 1304 2ab7
00000320: b284 deb8 299c 00b6 9a0d 5136 d673 3136
00000330: 5e0d fdb8 3e0e 3636 6308 ac36 fc7a 0936
00000340: 362c 9b36 6788 abb4 1698 91b5 c848 0a37
00000350: d5be a737 8838 0236 3966 9135 63d9 8a37
00000360: 6da6 50b6 df5a 1c37 fd09 4e36 b2b2 5ab5
00000370: ad5e dbb5 0523 9634 a5a7 6836 c33d 84b6
00000380: 3228 5037 ec44 a4b4 af4c a335 fdd0 f7b6
00000390: 8438 de37 b541 72b5 bb6b 4534 55e9 2a35
000003a0: 9b25 87b6 55ed 6635 c0ac a7b4 9346 29b7
000003b0: e1bb 0db6 5ced 2d36 910f 1836 a423 9335
000003c0: 010a 10b7 330d db34 9491 d2b5 1b6a 2fb4
000003d0: e5ad 3036 abd2 15b6 d6ab 01b4 a2d6 8c37
000003e0: fac4 5736 a521 97b4 65f1 7337 2335 ba33
000003f0: 69f1 1b35 cf13 9cb4 8c34 66b6 8a49 ca36
2.110909e-06 8.181904e-08 1.5244384e-06 2.3983857e-06 -8.120294e-06 -7.611633e-06 -7.543668e-07 6.1504606e-06
1.9413621e-05 -1.1089568e-06 2.189866e-06 4.4576655e-06 2.1224054e-05 1.6825616e-06 -8.735286e-07 -4.3799146e-06
-5.9668773e-06 9.020223e-07 1.0602919e-05 1.850737e-06 1.6858515e-06 7.741538e-05 -7.3805277e-06 8.096803e-05
-3.0988238e-07 -1.9938127e-06 3.923579e-05 -0.00013279945 -0.00032720037 -5.3562464e-05 -3.5541507e-06 1.5965181e-06
-0.00010248164 4.279136e-06 0.000261639 -0.00025264607 -3.7458107e-05 7.0559227e-06 1.4367243e-05 2.4183473e-05
2.9239443e-06 -4.4160715e-05 -1.1160951e-05 -1.7038794e-06 1.7432641e-06 1.9573088e-06 4.51232e-06 4.0958155e-05
8.09198e-06 1.4367916e-07 4.1343233e-06 6.646574e-07 -1.2113891e-07 -4.7309424e-08 2.8483537e-05 6.8925656e-06
1.4987485e-05 2.3430512e-06 -1.7007043e-05 -3.28883e-05 -1.5268024e-06 1.661651e-06 5.7862944e-06 1.2537153e-06
-1.4412377e-06 -2.3077771e-05 -1.1202523e-05 -1.4327748e-06 3.6738259e-06 -6.9181766e-07 0.00012005068 1.9310166e-06
-3.0519863e-05 -3.6816924e-05 5.3642696e-05 3.9252325e-05 -3.5949748e-07 -5.6769527e-06 3.7289121e-06 7.537176e-07
1.2214958e-05 6.4463404e-07 -9.756387e-06 1.7400907e-05 -8.462772e-05 -1.7939558e-07 -7.458161e-07 8.821938e-06
4.9823757e-06 -3.946717e-05 -2.15593e-07 4.2650965e-05 6.231158e-05 1.0871353e-05 -2.1943559e-05 9.530376e-06
2.0015943e-07 -8.672427e-05 1.3481863e-06 4.5082376e-07 -2.6569118e-05 7.432476e-06 -1.3230239e-06 0.00014136295
-8.2419265e-06 -8.442138e-06 -1.4971136e-05 3.0740923e-06 -2.5825451e-05 -1.6428266e-05 -9.565354e-08 -1.5969995e-06
-0.00022481602 -6.313007e-07 1.306276e-06 7.6975975e-06 -4.0860752e-07 3.438638e-06 -5.7890187e-08 9.2412085e-07
-6.65434e-07 4.380097e-05 -2.144715e-07 -4.9224004e-06 -8.5951524e-07 -4.7480893e-07 1.0027098e-05 3.0629717e-06
-0.00019778413 -2.9044295e-06 2.0656532e-06 1.5129706e-06 9.99796e-07 -1.0865877e-05 1.087063e-06 -2.1802855e-07
5.164631e-06 -4.417887e-08 5.027847e-06 1.4705338e-06 -1.972681e-06 -2.5051524e-05 2.1662227e-05 2.2054917e-05
-0.00040946598 -3.9038605e-07 3.7939683e-06 7.459134e-05 5.4563964e-07 4.1681574e-07 3.4124876e-06 -5.523079e-06
-1.0062257e-05 -2.7644073e-06 -1.1715281e-06 1.686074e-06 -3.3837196e-06 3.4951704e-06 -1.3948116e-06 -7.3268357e-06
4.611215e-06 -1.8152834e-05 -2.8848768e-05 -1.6151531e-06 1.6899313e-06 9.500973e-08 -4.3265263e-06 -0.00017004165
7.375515e-06 -2.0200153e-07 -3.1373063e-06 -0.00020323857 -1.1999326e-06 -8.388867e-06 7.783797e-06 1.6087755e-05
-5.2252428e-05 2.870149e-06 3.7281104e-06 -1.0957912e-05 6.6005057e-10 -1.3019013e-06 4.8878687e-06 -3.3361912e-06
8.542514e-06 2.8386865e-05 3.5264775e-06 1.883675e-05 1.5870502e-05 -0.00015266679 3.4157908e-06 2.0478822e-06
-1.2853224e-07 8.787334e-05 4.431705e-06 1.7661735e-06 2.1210058e-06 3.73862e-06 1.5576259e-06 -1.0133738e-05
-0.00010610501 -1.9164384e-06 3.1151344e-06 2.644248e-06 -0.0001206647 2.7128403e-06 5.126976e-06 2.0486177e-06
4.624507e-06 -3.1950478e-07 -1.0847605e-06 8.242387e-06 1.9996814e-05 1.9404415e-06 1.0833093e-06 1.655211e-05
-3.1091288e-06 9.319482e-06 3.0702206e-06 -8.1471364e-07 -1.6344326e-06 2.7965157e-07 3.4668276e-06 -3.9410966e-06
1.2407125e-05 -3.0597528e-07 1.2166764e-06 -7.385503e-06 2.649078e-05 -9.024764e-07 1.8386247e-07 6.366948e-07
-4.0276914e-06 8.602704e-07 -3.1231866e-07 -1.0089617e-05 -2.1119997e-06 2.591717e-06 2.2658826e-06 1.0962726e-06
-8.585398e-06 4.0801532e-07 -1.5688588e-06 -1.6336746e-07 2.6327264e-06 -2.2325355e-06 -1.2076575e-07 1.6789247e-05
3.2152152e-06 -2.815042e-07 1.4540133e-05 8.6709655e-08 5.80933e-07 -2.9071677e-07 -3.4303257e-06 6.02863e-06

weight f4 [256]
00000000: 3fce 073f 5096 213f b34a 2c3f 235f fe3e
00000010: 126b 0a3f a01b 0a3f d72a d13e 7f5b 3e3f
00000020: 1e80 3a3f d31e 113f 2a79 2d3f 4a61 393f
00000030: 439f 1f3f 5c7f 1c3f 114c 403f 0fdf 5d3f
00000040: 4182 383f 21c6 223f f92a 273f 6c2f 263f
00000050: c87f 153f 6cc7 3f3f ad00 353f 2c9e 353f
00000060: a02f 433f 745f 2b3f 6976 1d3f 6898 313f
00000070: 596f 133f a452 223f 2670 203f 9be8 fa3e
00000080: bb0e 1d3f a5e4 473f ec2f 4c3f e8c2 5c3f
00000090: b9b3 313f eaf0 313f 9a4f 173f c096 263f
000000a0: a96d 563f 1cb7 363f c5cb ee3e f076 1c3f
000000b0: cc2a 1c3f db5e 1e3f b127 8b3e 6f01 353f
000000c0: 02a4 1d3f 4b24 3a3f cf7d 093f b2f7 123f
000000d0: ea01 043f 0687 2e3f 657b 2d3f 3c15 553f
000000e0: 3d28 1b3f b89f 163f 3078 183f 3852 2c3f
000000f0: d22c 253f 97ac 1c3f 90c7 413f a080 353f
00000100: 5bb9 243f e4da 3c3f 6b23 383f ccd2 0b3f
00000110: 7e48 203f d0d6 173f 1703 2b3f 85c9 1a3f
00000120: 5ef3 153f 3775 243f 5f34 2a3f 8269 1f3f
00000130: 09d2 163f 976f 553f 2291 143f e029 043f
00000140: 97b7 313f 3566 293f c17c 113f 4182 2d3f
00000150: da64 363f 3c95 213f 5f27 163f e4c3 173f
00000160: a673 1b3f f9f5 193f 7bcb 1f3f b6ee 203f
00000170: c1e7 263f bfef 403f 0060 153f 3adf 013f
00000180: ef47 0e3f 8427 6c3f a8d8 193f ec10 183f
00000190: 8694 123f ac35 373f 6894 483f 5597 443f
000001a0: a29c 1e3f 8982 223f e958 283f 29e5 103f
000001b0: 2e70 1d3f 4187 203f 4521 113f fd2b 3b3f
000001c0: 170f 343f bf38 133f 062f 1f3f 6c52 263f
000001d0: 93ab 163f dd7f 163f f1d2 0b3f 9d70 213f
000001e0: a27d 063f 11c8 403f 17f8 053f 6515 133f
000001f0: 01af 273f b2e7 253f c107 2b3f b188 0f3f
00000200: bf3a 433f 7cff 1f3f 1627 1b3f fed7 0f3f
00000210: e142 123f 6e98 003f cf7c 043f 228a 1e3f
00000220: a12b 3d3f edd1 0f3f fda0 263f 4081 193f
00000230: 9ab1 1f3f e480 233f 9c9c 333f 2fb5 293f
00000240: 6d64 533f 7d95 1a3f af58 103f bcf3 463f
00000250: 3ca5 1f3f 384d 183f 36a7 183f 055b 083f
00000260: 0ba3 243f 35ae f03e cfce 563f 1d90 ed3e
00000270: a8bd 1b3f 39f3 0d3f 0243 2a3f ab9d 543f
00000280: b884 613f a70d 283f b592 2f3f 21f2 f43e
00000290: 6aca 313f 8027 173f 693b 133f 8155 203f
000002a0: ff91 0a3f 0e92 ff3e 2883 093f 74b2 2f3f
000002b0: 8ec9 253f 52ea 273f 54df 1a3f 0b4c 123f
000002c0: 4359 253f 5e01 f03e 5d8b 003f 8f10 183f
000002d0: bfd2 103f 1c75 2b3f 4435 1e3f 1c8a 623f
000002e0: db76 2c3f 664e 2b3f b8bc 1b3f d6a5 183f
000002f0: 6d6b 1e3f 5fee 1c3f 6a81 113f d8e9 353f
00000300: ccc3 423f 0a60 263f 9bf9 153f 8ee8 3c3f
00000310: df01 213f 636f 283f c547 0b3f 2989 323f
00000320: 9040 2b3f 29b9 0d3f 65c5 043f f6d4 143f
00000330: 9511 363f d132 163f 2c23 3d3f 5d0e 093f
00000340: 3f87 0d3f f675 1d3f a079 4f3f f8c5 213f
00000350: 8687 1b3f 2199 ff3e bb75 133f e677 563f
00000360: 56de 0c3f 0d57 023f ed16 fe3e 5fcf 1c3f
00000370: 13a5 183f 2512 173f 367f 0b3f 6e03 5e3f
00000380: ece0 163f 2629 143f 1d71 2a3f edd3 233f
00000390: 4aab 2c3f c13d 063f 98e7 1a3f dacc 0c3f
000003a0: 3214 233f bb73 123f 6534 093f a3b6 3f3f
000003b0: 4471 173f 6a71 233f 4678 473f aeca 2a3f
000003c0: 01f8 fe3e 0291 143f b0aa 213f 5f2e 153f
000003d0: 940e 0c3f 1f14 243f f4a3 163f e907 123f
000003e0: fdf9 263f c3f8 213f 2716 193f 870b 1f3f
000003f0: aa6b 4f3f 3f8f 183f 7658 3f3f 05bb 2f3f
0.5304908 0.63119984 0.6730148 0.4968196 0.54069626 0.539484 0.40852997 0.7435836
0.7285174 0.5668766 0.67763007 0.72414076 0.6235239 0.61131835 0.7511607 0.86668485
0.7207375 0.6358357 0.65299946 0.6491611 0.58398104 0.7491367 0.70704156 0.70944476
0.76244545 0.66942525 0.61508805 0.6937318 0.5759178 0.6340735 0.62671125 0.4900559
0.613506 0.7808326 0.7976062 0.86234903 0.6941486 0.6950823 0.5910584 0.65073776
0.8376108 0.7137315 0.4663984 0.61118984 0.610028 0.6186349 0.2717872 0.7070531
0.6157838 0.7271163 0.53707594 0.57409203 0.5156542 0.6817478 0.6776641 0.83235526
0.60608274 0.5883746 0.5955839 0.67312956 0.64521515 0.6120085 0.75695133 0.7089939
0.6434533 0.737715 0.71929044 0.54618526 0.62610614 0.5931215 0.6680159 0.60463744
0.58574474 0.64241356 0.6648616 0.6227037 0.5891424 0.833734 0.58033955 0.51626396
0.6942076 0.6617158 0.56830984 0.67776877 0.7124764 0.6311834 0.58653826 0.5928328
0.6072334 0.6014095 0.6241986 0.62864244 0.6519738 0.75365824 0.5834961 0.5073124
0.5557851 0.92247796 0.60096216 0.5940082 0.5725788 0.7156627 0.7835145 0.76793414
0.6195775 0.6348043 0.65760666 0.5659967 0.614993 0.6270638 0.5669139 0.73113996
0.70335525 0.5750846 0.6218113 0.64969516 0.5885555 0.58788854 0.54618746 0.6306246
0.5253545 0.7530528 0.5233168 0.5745452 0.6550141 0.64806664 0.66808707 0.5606795
0.76261514 0.62499213 0.60606515 0.5618895 0.571333 0.5023259 0.5175294 0.61929524
0.738947 0.56179696 0.650894 0.59962845 0.62380373 0.63868546 0.7016084 0.6629209
0.8257511 0.6038435 0.5638532 0.7771566 0.623615 0.59492826 0.59630144 0.53263885
0.64311284 0.4700791 0.83909315 0.46399012 0.6083627 0.55449253 0.66508496 0.8305308
0.8809314 0.6564583 0.6858323 0.4784098 0.69449484 0.5904465 0.5751253 0.6263047
0.5412902 0.49916118 0.53715754 0.6863167 0.64760673 0.6559192 0.6049702 0.5714728
0.6458933 0.46876043 0.5021265 0.59400266 0.56571573 0.6697557 0.61800027 0.8849199
0.6736886 0.669165 0.60834837 0.59628046 0.6188267 0.61301225 0.56838095 0.7105994
0.7608001 0.64990294 0.5858399 0.7379235 0.6289348 0.6579496 0.54406387 0.6974054
0.6689539 0.55360657 0.518637 0.5813745 0.7112058 0.5867129 0.73881793 0.5353754
0.55284494 0.6150812 0.8104496 0.631927 0.6075367 0.49921516 0.5760152 0.837767
0.5502676 0.5091408 0.49626866 0.61253923 0.59626883 0.5901206 0.54490983 0.86723983
0.58936954 0.5787529 0.6657885 0.6399525 0.67448866 0.5243798 0.60509634 0.5500008
0.6370269 0.5720784 0.5359557 0.74888057 0.59157205 0.6384493 0.779179 0.66715515
0.49798587 0.58033764 0.63151073 0.5827388 0.54709744 0.640932 0.5884392 0.5704332
0.652252 0.63270205 0.59799427 0.62126964 0.8102366 0.59593576 0.74744356 0.68644744

bias f4 [256]
00000000: 8856 52bf 8a0a fbbe 4843 85bf ca70 80bf
00000010: b884 92bf f682 70bf a9a1 e2be 6d2c 76bf
00000020: bcaf 3fbf d3a1 5fbf 6a55 8bbf 32b5 10bf
00000030: ff9b 88bf 77ab 2abf b9ea 6fbf a19a 3abf
00000040: a41e 69bf 42d1 55bf 83cc c6be 69cd 58bf
00000050: ec7b 7ebf c65d 60bf e97e 35bf 4ab6 8bbf
00000060: 2500 4bbf 381f 5fbf d894 75bf b884 74bf
00000070: e3fc b4be b7c0 11bf 6010 87bf e2da 5cbf
00000080: 504c 803d cd09 24bf 7bca 0cbf ccce 54bf
00000090: 4dc1 5ebf a16a 68bf f1c1 873d c1d2 3bbe
000000a0: d5f7 5ebf cfac 57bf b630 90bf 9dd1 3bbf
000000b0: 4a02 7cbf 2ad3 24be 4574 58bf c341 b0be
000000c0: 412b 9ebf a3f6 5ebf 8d38 72bf 6235 63bf
000000d0: 7543 f7bd 9c97 05bf dc29 8dbf 7455 2ebf
000000e0: b82b 88bf 9b6a 21be 8c69 73bf 4a39 8abf
000000f0: 5a6d 45bf 1341 74bf 9ce8 20bf b0e8 74bf
00000100: 2081 6abf 8170 72bf 3771 41be b133 5abf
00000110: 7226 86bf 1724 28bf 8176 86bf 8759 40bf
00000120: 5fe1 55bf 2172 01bf 4e91 41bf e821 28be
00000130: be1b 53bf 7683 30bf 5be7 7dbf e01a 07bf
00000140: 1e24 81bf 8748 54bf 4da1 6cbf 6b2a 5cbf
00000150: f038 8cbf fc06 83bf cfb8 3bbf 4ea3 92bf
00000160: 986c 71bf f500 19bf c22e 8bbf baef 78bf
00000170: ddc1 82bf 523c 74bf 8d0c 70bf 1a3a 6cbf
00000180: 1891 52bf 92ba 35bf fc53 8f3d 19d1 2ebf
00000190: 2257 61bf e30d 83bf 3b37 87bf d908 59bf
000001a0: 9e51 0dbf b236 27be b94e 5ebf 3f13 37bf
000001b0: 8d4d 5fbf ada8 87bf 28fc 32bf 620c 56bf
000001c0: 86d3 1fbf 1cd3 6fbf 0a26 80bf eb54 8bbf
000001d0: 7f6f 66bf 5d53 83bf 5b0d a8be e822 74bf
000001e0: e043 51bf 2569 7ebf 7218 39bf 065e 923d
000001f0: b46a 84bf a97e 58bf 9308 ae3d cbc5 08bf
00000200: 5aca 72bf e748 6fbf c04b 2dbf 12e5 4fbf
00000210: 85ba 75bf 51a4 54bf 60d0 12bf d3ad 89bf
00000220: b624 42bf a2ba 23bf 52e4 6dbf 59c3 843d
00000230: 7eab a03d d939 7bbf 13ca 73bf 4e4f 49bf
00000240: cb5e 2abf 1c0d 0ebf 7345 8bbf 7465 5fbf
00000250: 79a5 15bf 93e0 0cbf b607 80bf 4bf5 27bf
00000260: a3d4 82bf 7dab 0dbf 70cd 30bf 1828 05bf
00000270: b303 30bf 7440 7abf ceb1 6abf f729 2ebf
00000280: 9e74 3ebf cc05 66bf 9b1d 65bf e67b 35bf
00000290: fcd2 75bf 4bb1 4dbf 6d16 5dbf 90de e9be
000002a0: 8327 80bf addd 43bf 9ab3 6bbf d400 26bf
000002b0: 144a 62bf b364 af3d a6e1 7fbf 9bc3 3ebf
000002c0: a00d 7bbf 77ea 48bf f953 17bf bf37 4fbf
000002d0: a454 29bf 6d94 63bf 9d08 2ebf 8624 44bf
000002e0: fb5d 84bf 6870 62bf a383 74bf 7fc6 51bf
000002f0: 6f31 72bf fd5b 25bf 8b04 05bf 1c4b 8ebf
00000300: b07c 5bbf 9f6b 87bf 553e 8e3d e0b3 19bf
00000310: f6ef 0abf 7668 4bbf d0e7 893d 1bb6 7abf
00000320: 991e 33bf f02b 04bf 5af6 edbd 9323 84bf
00000330: 0b00 65bf ce4f 5ebf b70d 1abf e893 f8be
00000340: 87b6 60bf 710c 86bf 72d3 28bf ed5e 943d
00000350: aab2 84bf b2a3 aebe d7a4 43bf 66ee 4bbf
00000360: 9cb1 c0be b38b 27bf b39d 78bf e628 85bf
00000370: 8594 3cbf ae7c 68bf 0d07 87bf f225 40bf
00000380: f66e 993d e8a0 58bf 244d 6abf 46d2 73bf
00000390: c276 6dbf 49b2 863d 1577 73bf f54a 5bbf
000003a0: dc0c 73bf ce28 03bf a2fc 6abf 5268 8fbf
000003b0: 671d 38bf 227f 23be 8417 1bbf f3b4 d2be
000003c0: 5c4a 8cbf a1c9 45bf a8c7 74bf 7e0f e0be
000003d0: 31a7 e2bd 70ea 44bf e0eb 89bf 49e7 f1bd
000003e0: 0d6e 46bf 8ab4 f7be a0ec 7abf 2746 76bf
000003f0: 5c17 29bf 441b c0be f02c 1bbf 6b07 69bf
-0.82163286 -0.49031478 -1.0411158 -1.003442 -1.1446753 -0.9394983 -0.44263962 -0.9616154
-0.74877524 -0.873563 -1.0885441 -0.5652648 -1.0672606 -0.66667885 -0.93717533 -0.72892195
-0.9106238 -0.8352243 -0.38827905 -0.8468843 -0.9940784 -0.87643087 -0.70896775 -1.0915005
-0.79297096 -0.8715701 -0.9593024 -0.9551501 -0.35349187 -0.56934685 -1.0551872 -0.8627149
0.062645555 -0.64077455 -0.5499646 -0.83128047 -0.87013704 -0.907877 0.06628788 -0.18342115
-0.8709691 -0.8424806 -1.1264865 -0.7336672 -0.9844099 -0.16096178 -0.84552413 -0.34425172
-1.235695 -0.8709509 -0.9461754 -0.8875333 -0.12073413 -0.5218446 -1.10284 -0.6809914
-1.0638342 -0.15763323 -0.95082927 -1.0798733 -0.7711998 -0.95411795 -0.62854934 -0.9566755
-0.9160328 -0.9470292 -0.18890844 -0.85235125 -1.0480483 -0.6568007 -1.0504915 -0.7513661
-0.83547014 -0.5056477 -0.7561234 -0.16419184 -0.82464206 -0.68950593 -0.99181145 -0.52775383
-1.0089147 -0.8292317 -0.92433625 -0.86002225 -1.0954876 -1.0236506 -0.7332887 -1.1456087
-0.94306326 -0.59767085 -1.0873644 -0.97240794 -1.0215412 -0.9540454 -0.9376915 -0.92276156
-0.82252645 -0.7098781 0.069984406 -0.6828781 -0.8802358 -1.0238613 -1.056373 -0.84779125
-0.5520266 -0.16329458 -0.8683887 -0.7151374 -0.8722771 -1.0598351 -0.6991601 -0.83612645
-0.62432134 -0.936815 -1.0011609 -1.088529 -0.9001388 -1.0259815 -0.3282269 -0.9536576
-0.81744194 -0.9937919 -0.72302926 0.0714684 -1.0345063 -0.8456827 0.08497729 -0.5342681
-0.94840014 -0.93470615 -0.6769371 -0.8120891 -0.9598773 -0.83063227 -0.57349205 -1.0756172
-0.75837266 -0.63956654 -0.92926514 0.06482572 0.078452095 -0.98135144 -0.95230216 -0.78636634
-0.6655089 -0.55488753 -1.0880569 -0.8726418 -0.58455616 -0.55030173 -1.0002353 -0.6560866
-1.0221142 -0.55339795 -0.6906347 -0.52014303 -0.68755645 -0.977546 -0.9167756 -0.68032783
-0.74396694 -0.89852595 -0.894983 -0.7089218 -0.9602506 -0.8034865 -0.86362344 -0.45677614
-1.0012058 -0.76510125 -0.92070925 -0.64845014 -0.88394284 0.08564129 -0.9995369 -0.7451722
-0.98067665 -0.78482765 -0.5911251 -0.80944437 -0.66144776 -0.88898355 -0.6798189 -0.7661823
-1.034118 -0.8845277 -0.9551336 -0.81943506 -0.9460668 -0.6459349 -0.5196006 -1.1116672
-0.85737133 -1.0579718 0.06945483 -0.6004009 -0.542724 -0.7945627 0.06733668 -0.9793412
-0.69968563 -0.51629543 -0.116192535 -1.0323356 -0.8945319 -0.8684052 -0.6017718 -0.48550344
-0.87778515 -1.0472547 -0.6594764 0.07244668 -1.0367024 -0.34109265 -0.764234 -0.7966064
-0.37635505 -0.6544754 -0.9711563 -1.0403106 -0.7366412 -0.90815246 -1.0549027 -0.750579
0.07491867 -0.84620523 -0.9152396 -0.95242727 -0.92759335 0.06576974 -0.9510358 -0.8566125
-0.94941497 -0.5123414 -0.9179174 -1.1203711 -0.71919864 -0.15966466 -0.60582757 -0.41153678
-1.0960193 -0.77260786 -0.9561715 -0.4376182 -0.110670455 -0.76920223 -1.0775108 -0.11811692
-0.77511674 -0.48379928 -0.9801731 -0.96200794 -0.6605127 -0.37520802 -0.60615444 -0.91026944

running_mean f4 [256]
00000000: 7f03 c2c5 9297 9346 52df 2543 bb67 40c6
00000010: 4fb8 9b42 2249 3ac5 d287 8244 5351 f042
00000020: bea7 4746 80d4 bcc6 747e 94c2 58f9 f945
00000030: ca23 0a43 491c d7c3 c003 0146 38ac 1146
00000040: 4b69 5346 8647 3446 3efe a0c0 63e1 8644
00000050: 39aa 9ec5 b36e b141 aee1 b142 894f 1f43
00000060: 95f2 4146 a689 1b46 9bd2 4c43 a797 1243
00000070: 0982 72c2 8ccc c642 47af 6c43 b27d 85c5
00000080: 0bb6 4046 a0e1 01c6 62a6 0d42 c9e8 abc2
00000090: cca6 a042 e35f 2543 1799 4b46 80a7 34c6
000000a0: c141 3046 883e 5d41 0e72 ac44 a86e bd45
000000b0: b66e 0246 c034 29c6 1033 d9c5 1a43 64c1
000000c0: 6294 16c6 cdad 4f42 ca46 08c6 804a 0b46
000000d0: 58e3 15c6 c437 8ac7 06f4 b643 c40c ccc5
000000e0: d1f1 1bc3 7802 34c6 2118 3d43 665c 3a43
000000f0: f922 6046 ee6f f342 bfce 23c5 117a 0c47
00000100: 8a5b e643 f768 c341 88d1 2cc6 85a0 dc45
00000110: dbc6 b0c5 131a 6646 7aed a242 3773 8dc5
00000120: f821 8ec2 5398 9946 d68e ad42 fb74 38c6
00000130: 3186 8845 db84 cac5 5f90 87c5 3ada b546
00000140: d470 4442 1760 2a46 d889 0346 ab32 6942
00000150: 1a32 3e43 83f8 61c7 e4aa 3946 9bc4 0343
00000160: 4be6 bf43 915e 20c2 0a93 ffc5 ead9 f4c3
00000170: 72ab fb42 945f acc0 bd81 9442 642c 16c6
00000180: 4164 18c6 556b 5340 bed1 5046 9dc9 e645
00000190: a624 d645 26e8 2343 2cd7 2446 2782 02c2
000001a0: 36a2 89c2 58fa 35c6 fed0 c845 758d 7a45
000001b0: 0129 3a43 e613 f442 a27a 2b45 230d b645
000001c0: 53fe fbc1 de54 1dc7 f236 98c6 409c 9643
000001d0: eb52 c945 56c1 79c4 7a1f 5146 067a f545
000001e0: 9d42 9e42 a3b1 c442 3992 8ec6 5e66 5d46
000001f0: 33e7 0446 b361 3f46 6e6f 4d46 8a70 cd42
00000200: 3787 2042 a1e2 b445 c75e c244 b863 a4c5
00000210: 423f a4c2 4190 4cc5 8b9c b646 cfa6 97c2
00000220: 1c02 d641 cf8b 0446 ed69 bf42 e031 1546
00000230: 48b9 5346 132a bd42 95b4 d143 7e03 67c5
00000240: d7ca 0ac2 9c7b 51c6 b7e1 2c44 ba2f a2c2
00000250: 1396 a0c5 8b2f 85c6 7b68 f1c5 d2d6 1fc5
00000260: 0c13 d342 e007 0fc6 416d 1346 383d 12c6
00000270: ff7a 8b45 8230 a4c2 0da7 f046 9c47 23c6
00000280: 8b37 2846 79eb ff42 1111 0543 db0e bac5
00000290: cbea e145 99a4 fa45 1dcb dc43 b991 6cc2
000002a0: 50ab e042 9036 aa45 e35f c3c5 ada9 7142
000002b0: 8bbc c945 0d94 6546 8e3c cc43 f8e5 3e43
000002c0: eb2f c342 793c 49c6 109c b245 426a a945
000002d0: 16e0 00c6 03ac 0046 b39f 8146 41bf 1246
000002e0: a423 4243 3bdc 8cc2 ec73 9ec5 0aa7 c345
000002f0: fff1 d645 8078 aec2 15fc 5246 b045 cc45
00000300: 1f37 3846 aea1 6743 73c9 1d46 7c3d fac5
00000310: 3662 62c6 7b44 97c5 0ab1 4a46 f49d db42
00000320: 764f 64c2 f33d f146 bd2b 18c6 0f85 1a43
00000330: d30e 8ec2 5898 cdc6 4e97 7dc5 ce16 72c5
00000340: cf29 a4c5 aceb a442 35b7 f945 21d6 5046
00000350: 6e3b ee43 6fb1 03c6 53a2 fbc5 4459 c241
00000360: e2c6 be46 da36 f645 3c3e 4743 6716 00c6
00000370: 2b90 bfc6 fd2d ccc5 6163 c043 8c5c 2a46
00000380: b51b 5946 19c4 f6c6 2a91 0146 70b6 23c5
00000390: 3105 c942 a14e 3546 4982 8742 3972 e6c5
000003a0: c30a 1443 34ca 60c6 c91d c9c5 0927 ea43
000003b0: 5106 7dc6 d6f6 0dc6 7a0e 0446 5216 c1c6
000003c0: c68e 7f43 81b5 bb45 ba15 6343 0cfe 0b42
000003d0: eb23 1ac6 b1be 5346 814e d5c5 93af 04c6
000003e0: f044 1547 9c4b 0dc7 0830 adc5 811a e745
000003f0: d8d4 1b46 446d 9446 b391 0446 6d3f 04c3
-6208.437 18891.785 165.87234 -12313.933 77.85998 -2980.5708 1044.2444 120.15884
12777.936 -24170.25 -74.24698 7999.168 138.1398 -430.22098 8256.9375 9323.055
13530.323 11537.881 -5.0310354 1079.0433 -5077.278 22.179052 88.94078 159.31068
12412.6455 9954.412 204.82268 146.59239 -60.626987 99.399506 236.68468 -4271.712
12333.511 -8312.406 35.412483 -85.95466 80.325775 165.37456 13030.272 -11561.875
11280.438 13.827766 1379.5642 6061.832 8347.678 -10829.1875 -6950.383 -14.266382
-9637.096 51.919727 -8721.697 8914.625 -9592.836 -70767.53 365.90643 -6529.5957
-155.9446 -11520.617 189.09425 186.36093 14344.743 121.71861 -2620.9216 35962.066
460.71515 24.426252 -11060.383 7060.065 -5656.857 14726.519 81.46382 -4526.402
-71.066345 19660.162 86.77898 -11805.245 4368.774 -6480.607 -4338.0464 23277.113
49.110184 10904.022 8418.461 58.29948 190.19571 -57848.51 11882.723 131.76799
383.79916 -40.09235 -8178.38 -489.70245 125.834854 -5.3866673 74.253395 -9611.098
-9753.063 3.303426 13364.436 7385.2017 6852.581 163.90683 10549.793 -32.6271
-68.81682 -11646.586 6426.124 4008.841 186.16017 122.038864 2743.6646 5825.642
-31.499182 -40276.867 -19483.473 301.2207 6442.3647 -999.0209 13383.869 7855.253
79.130104 98.34695 -18249.111 14169.592 8505.8 12248.425 13147.857 102.7198
40.132046 5788.3286 1554.9618 -5260.465 -82.12355 -3273.0159 23374.271 -75.8258
26.75103 8482.952 95.70689 9548.469 13550.32 94.58218 419.4108 -3696.2183
-34.698086 -13406.902 691.5268 -81.093216 -5138.7593 -17047.771 -7725.06 -2557.4263
105.5372 -9153.969 9435.313 -9359.305 4463.3745 -82.09474 30803.525 -10449.902
10765.886 127.95991 133.06667 -5953.857 7229.349 8020.5747 441.58682 -59.142307
112.334595 5446.8203 -6251.986 60.4157 6455.568 14693.013 408.47308 190.89832
97.59359 -12879.118 5715.508 5421.282 -8248.021 8235.003 16591.85 9391.813
194.13922 -70.43014 -5070.49 6260.88 6878.2495 -87.23535 13503.0205 6536.711
11789.78 231.63156 10098.362 -8007.6855 -14488.553 -4840.56 12972.26 109.8085
-57.0776 30878.975 -9738.935 154.51976 -71.02895 -26316.172 -4057.4565 -3873.4253
-5253.226 82.4603 7990.901 13365.532 476.4643 -8428.358 -8052.2905 24.293587
24419.441 7878.8564 199.2431 -8197.601 -24520.084 -6533.7485 384.7764 10903.137
13894.927 -31586.049 8292.291 -2619.4023 100.51014 11603.657 67.75446 -7374.278
148.04204 -14386.551 -6435.723 468.30496 -16193.579 -9085.709 8451.619 -24715.16
255.55771 6006.688 227.08487 34.998093 -9864.9795 13551.673 -6825.813 -8491.894
38212.938 -36171.61 -5542.004 7395.313 9973.211 18998.633 8484.425 -132.24776

running_var f4 [256]
00000000: 6876 154b d38b fc4c 3ea7 f645 25e9 b64b
00000010: 8939 3e45 035c 084a 2307 7148 48d3 8c45
00000020: 4ea9 d94b 3f1a 3a4d bdde 8044 00b4 654b
00000030: 68f8 9545 caec ff48 c576 e64b 4a82 9a4b
00000040: 9665 9b4c ffc0 124c ba4e a142 14b4 2349
00000050: a1e4 db4a afcf 6543 0d6c 1845 ae08 eb45
00000060: 23cd d84b faf3 174c 6f25 5646 933a a045
00000070: 7e35 6f44 2621 4945 16f2 5346 bdb2 684a
00000080: b0ba 034c ff74 5c4b 02b6 1044 3d75 cd44
00000090: 6eef 6a45 22a8 0d46 cb16 104c 0a30 d84b
000000a0: 2766 b24b 0c11 4643 1ca7 484a 1390 944b
000000b0: b649 6b4b 0f3e c04b f2ac 974b 2843 3043
000000c0: 4906 774b 0274 a844 0450 734b 0d6f 824b
000000d0: 4f6d 914b a92b bb4e a498 1f47 9a2b 0c4b
000000e0: 7849 5846 c968 da4b e97f 3046 650c 0746
000000f0: 87e1 7e4c d96b 9745 cb20 a949 b074 ca4d
00000100: f3d7 6e47 3cf8 4744 9f15 cb4b 99b3 234b
00000110: a804 d54a 5837 884c 887c 1c45 90a8 cc4a
00000120: 76f9 4a44 c038 e04c b4d3 e544 5146 de4b
00000130: 6926 614a 87c1 054b 074c 7b4a 72c9 1a4d
00000140: 4937 9244 82ab 1a4c e0f1 6c4b ccc8 2445
00000150: 3580 2846 3f32 774e 2d54 3b4c 9c8f 6d45
00000160: 00fb 3447 0d23 2d44 e19b 6b4b d1eb a547
00000170: ebc6 9745 b841 b342 fbad 6d45 854e 694b
00000180: 94df 014c ac9e 1543 9ab6 204c 1c90 3b4b
00000190: c313 134b 4c3e 1b46 f6fb c64b 45a4 9143
000001a0: 1926 b244 d280 de4b 8c4b 334b e6bd e64a
000001b0: 2434 0846 a1b5 ae45 63fa 404a cf52 854b
000001c0: 3542 9c43 8da6 ef4d c487 eb4c 1a9b de46
000001d0: 8cd5 124b 5b09 9f48 1916 454c fa14 534b
000001e0: fe44 1f45 7938 5145 5c6c 8b4c 6151 244c
000001f0: b5b8 624b c672 294c e5dd 114c 922e 5e46
00000200: cbc4 4744 5545 e34a d5d5 be48 ca84 684a
00000210: 0ddf a345 54b4 224a 42f3 264d b1cd 8f45
00000220: 4fd2 ff43 f4c8 664b c072 2b45 533a 9b4b
00000230: c947 184c ff9e 3a45 329e 6647 08c9 b44a
00000240: 527d bb43 f17a 4c4c ae95 1548 7cf2 ac44
00000250: f35f 114b b8e0 d04c 0648 574b 2507 8e49
00000260: 8439 5e45 f569 b44b 0627 9f4b aa82 954b
00000270: 47eb 834a c524 3245 a0ad 8d4d ac4b b04b
00000280: f0c6 c74b def3 a645 a8b2 d245 bac5 f94a
00000290: 1938 434b 1e27 924b c395 0747 c344 6344
000002a0: d32f 4a45 5ae6 b54a 1675 0e4b 2c2e ae44
000002b0: fc29 294b ef64 364c 40e6 4947 c1fa 4e46
000002c0: fe4f 4345 e45a 4b4c 0004 774b 9f3b de4a
000002d0: df08 bb4b 8bbc 6c4b 423d a44c a5e2 a04b
000002e0: cbb1 5c46 3760 a644 748b 924a 3c6b d54a
000002f0: 5a58 164b c778 0f45 8199 574c 453b 014b
00000300: 2b15 e04b c56c 8246 3dc2 a64b ceb8 484b
00000310: a886 764c 7ba4 254b e95a 0c4c 5d4e bb45
00000320: ecc8 6f44 be9d 8e4d 170d 974b daa3 8b45
00000330: 7bdd 5445 000a 634d cc08 4c4a f5fe 4c4a
00000340: ff4e c54a 9d2f d644 533b 5f4b 44c2 194c
00000350: 54a6 9a47 94dd 644b 8790 c44b b0f4 9243
00000360: f543 1c4d 5269 144c 59dc 0c4b 5d6a 684b
00000370: 666f 3d4d 7b11 304b 2ae0 1547 ff4f bc4b
00000380: 71de 1f4c 1cb0 914d 0809 1b4b a7f7 e14a
00000390: 278e 0145 8dd0 dc4b 0dfe 5b46 0c66 5f4b
000003a0: 0a89 db45 b8f5 914c 8245 104b 9bee 8347
000003b0: 97fe b74c b0b8 864b 5a1b 7a4b 2374 444d
000003c0: 73a3 dc46 3c1e 0d4b 8a03 7846 0fb3 4744
000003d0: 93ef 994b 44fd 1f4c b9f9 0c4b 0466 6a4b
000003e0: 2ac4 dd4d f1a5 c14d 9d35 d94a 3b1d 304b
000003f0: 235c b14b 63cc e04c 3c1d 6a4b 55c8 b445
9.795176e+06 1.32406936e+08 7892.9053 2.3974474e+07 3043.596 2.2341128e+06 246812.55 4506.41
2.8529308e+07 1.9514264e+08 1030.9606 1.5053824e+07 4799.051 524134.3 3.020737e+07 2.0251796e+07
8.147269e+07 3.8470652e+07 80.65376 670529.25 7.2054565e+06 229.81126 2438.7532 7521.085
2.8416582e+07 3.9833576e+07 13705.358 5127.322 956.8358 3218.0718 13564.521 3.8125272e+06
3.453203e+07 1.4447871e+07 578.8439 1643.6637 3758.9644 9066.033 3.7772076e+07 2.8336148e+07
2.3383118e+07 198.06659 3.287495e+06 1.9472422e+07 1.541983e+07 2.5197598e+07 1.988042e+07 176.26233
1.6189001e+07 1347.6252 1.5945732e+07 1.7096218e+07 1.9061406e+07 1.5701004e+09 40856.64 9.186202e+06
13842.367 2.8627346e+07 11295.978 8643.099 6.6815516e+07 4845.481 1.3854974e+06 4.245806e+08
61143.95 799.87866 2.6618686e+07 1.0728345e+07 6.98018e+06 7.141651e+07 2503.7832 6.706248e+06
811.8978 1.1755674e+08 1838.6157 2.9133986e+07 3.6888582e+06 8.765831e+06 4.1172498e+06 1.6230582e+08
1169.7277 4.05458e+07 1.5528416e+07 2636.5498 10784.052 1.0368163e+09 4.9107124e+07 3800.9756
46331.0 692.54767 1.5440865e+07 84951.63 4856.8647 89.62836 3802.8738 1.5289989e+07
3.404552e+07 149.61981 4.2130024e+07 1.2292124e+07 9.638851e+06 9935.574 2.608126e+07 291.28336
1425.1906 2.916394e+07 1.1750284e+07 7.560947e+06 8717.035 5590.7036 3.1617528e+06 1.7474974e+07
312.51724 5.025837e+08 1.2348573e+08 28493.55 9.622924e+06 325706.84 5.1664996e+07 1.3833466e+07
2548.312 3347.5295 7.309795e+07 4.3074948e+07 1.4858421e+07 4.4419864e+07 3.82381e+07 14219.643
799.0749 7.4472105e+06 390830.66 3.8095865e+06 5243.8813 2.665749e+06 1.7506e+08 4601.7114
511.64304 1.5124724e+07 2743.1719 2.0346022e+07 3.9919396e+07 2985.9373 59038.195 5.923972e+06
374.97906 5.3603268e+07 153174.72 1383.5776 9.527283e+06 1.0951213e+08 1.4108678e+07 1.1634926e+06
3555.5947 2.364721e+07 2.0860428e+07 1.9596628e+07 4.3227235e+06 2850.298 2.9712077e+08 2.3107416e+07
2.6185184e+07 5342.4834 6742.332 8.184541e+06 1.2793881e+07 1.915654e+07 34709.76 909.0744
3234.989 5.960493e+06 9.336086e+06 1393.4429 1.1086332e+07 4.7813564e+07 51686.25 13246.688
3124.9995 5.3308304e+07 1.6188416e+07 7.2821275e+06 2.4515006e+07 1.5514763e+07 8.610869e+07 2.1087562e+07
14124.448 1331.0067 4.801978e+06 6.99331e+06 9.853018e+06 2295.5486 5.6518148e+07 8.469317e+06
2.9370966e+07 16694.385 2.1857402e+07 1.315451e+07 6.462531e+07 1.0855547e+07 3.6793252e+07 5993.7954
959.1394 2.990878e+08 1.9798574e+07 4468.4814 3405.8425 2.3806771e+08 3.342899e+06 3.3586532e+06
6.4654075e+06 1713.4879 1.4629715e+07 4.030696e+07 79180.66 1.4998932e+07 2.576411e+07 293.91162
1.6385621e+08 3.890516e+07 9.231449e+06 1.5231581e+07 1.9863715e+08 1.1538811e+07 38368.164 2.4682494e+07
4.1908676e+07 3.0552973e+08 1.0160392e+07 7.4044995e+06 2072.8845 2.8942618e+07 14079.513 1.4640652e+07
7025.13 7.652499e+07 9.454978e+06 67549.21 9.6466104e+07 1.7658208e+07 1.6391002e+07 2.0599659e+08
28241.725 9.248316e+06 15872.885 798.7978 2.0176678e+07 4.194024e+07 9.238969e+06 1.536154e+07
4.6507757e+08 4.0610973e+08 7.1175185e+06 1.1541819e+07 2.3246918e+07 1.17859096e+08 1.5342908e+07 5785.0415

weight f4 [128, 256]
00000000: 6def 9fbe 1b57 bfbe 6bd3 1bbc 2aa4 87be
00000010: a436 8ebb 07e2 29be 26d1 23bd 8b2f a4be
00000020: 8353 d63d f69b 6c3d bfbf 9e3e 839f 7a3e
00000030: 4cb9 a1bd b518 46bd 3ad8 8c3e 834a 923e
00000040: d74c 22bd a9a8 40be 2a58 b7be 1c1b be3c
00000050: ef2c 4cbe 3366 44be 5955 c9be 7193 773e
00000060: efcb 2c3e 4121 183e 1b06 1c3e eaf6 a83b
00000070: 056a 2abe fb80 febe 5357 803c cf60 15be
00000080: 7ea8 04be df66 213e c535 803f 6958 5cbd
00000090: c8bd 1abe 63e4 413e e265 14be 35d9 8fbd
000000a0: 6fce fe3e e7b0 293c caf8 62bd 6186 62be
000000b0: dc9f f4bd c93c babd 8182 0a3e 0090 023e
000000c0: c078 a43b b26f 623d f10c 03bf 20e8 a1be
000000d0: ff73 11be 2e22 97bd 06b8 0bbe f18e ecbb
000000e0: d417 273e d9e9 a13d 32dc 853e bf06 7dbe
000000f0: e76b 6bbe 2643 083e 7968 84bc e936 913e
00000100: 3805 8fbd fcdf 123d 9ee0 e33d 24a7 f2be
00000110: 6d4d f33d 32c2 15be a21b b23e 4955 ad3b
00000120: 6312 18be 8d92 903c bdab 74bd bafa 993c
00000130: 79f2 31be 021b 373d 6a3b 95be 8ff9 87be
00000140: 95a4 363e 5808 71bd 1cc5 f1be 41fe ae3d
00000150: e2ab 433e 2c18 85bc b136 febd 2a94 90be
00000160: 66d3 c0bd d16f 84be c4b3 08be 1307 343d
00000170: 1e72 10be c06e 623b d838 c63d e060 87bd
00000180: 0703 033e 92c0 debe 5710 16be 5976 213e
00000190: 25cb 32be db43 8dbd 655d bd3d 9945 9ebe
000001a0: 8763 10be 9e33 643e 98d3 41be dcc7 e5be
000001b0: 2b39 2d3e f731 713d a93f 18be 4675 a23e
000001c0: 066e 913e 1271 eb3c 9d13 0c3d 9779 44be
000001d0: 95d0 8ebd 3955 8bbd dfd1 dabd 67ac 443e
000001e0: 2385 6e3d 9310 343c 29b2 4ebd 7de4 c0bd
000001f0: c2d1 a4bc 6f3e 0cbc 521d 173e 40ee dbbc
00000200: 8a87 903c 15c4 d6be f455 603d 3f84 9ebe
00000210: da09 f93e f181 0fbe 98d8 91be 89dd f03b
00000220: cee4 6f3e 149e 27bc 7ccd ca3d f039 b3bc
00000230: 2cc7 83bd 24fb aebc 769d 25be cdcc b4bd
00000240: 79b4 d43e e06d 1dbe 8bf7 bbbe d658 853e
00000250: d225 ea3c 8067 c8bb ae0c f5bd 9333 8ebe
00000260: e6b2 e4bd 892c 15be b1fd 1c3e 9773 24be
00000270: e6bc 9e3c 6ef0 5e3e ca39 10be f726 f03c
00000280: 2ab9 f53e 12df fa3d 6026 443e 2b7c 46be
00000290: b29f 203d 89ac 5bbe 1139 4ebe 1afa 9dbe
000002a0: dcf4 a43e c8a5 7cbe 45ed e4bd f364 96be
000002b0: c93d 1f3d 98ae 58bd acf6 4bbe 2ff2 28be
000002c0: 1325 ef3d 6eaa dcbe 880e 75bd 2fc0 5dbe
000002d0: 8783 b13d a88e fa3d 0c97 54be d3df c73e
000002e0: 9b8a 1bbd 0e00 f83d b57c 85be cad5 0a3e
000002f0: 788e 02be 8b44 2ebd ec92 a3be 01e3 a43d
00000300: 9632 8f3d c1f0 453e 376e 27be 353b 3a3c
00000310: 951e 64be ec0f a7bd de60 3ebc 85f9 f93c
00000320: 6e13 8bbe 1861 a9be 9ac3 61be 9a0c 41be
00000330: 9673 943d 1bb6 763e 2429 973c 776d 82be
00000340: a1c3 bdbd 60ff 603e 43b5 b13e 254d e9bd
00000350: 8141 99be bbf5 61be b800 30be fd68 d63c
00000360: 7980 1ebe 3f7d b53d cb81 0bbe aa8f 53be
00000370: d0e9 c43d ef44 45be 828e 30be 25f7 803e
00000380: d675 7fbd d757 d9bc fada c03e c812 603d
00000390: 80f4 853e d40c e5bb 5f1d 3d3d 2d8d 9d3c
000003a0: 8173 a13e 6f15 0dbe c337 b6be be9c 973e
000003b0: ff92 d83d 082b 613d da2c 653e 486a f43d
000003c0: 89ac bb3b 6250 13be b2a8 3b3e 57ff b8be
000003d0: 7ec1 38be 8b19 e03e 85f4 6dbe a967 e6bd
000003e0: 6566 d9be 0eae 2dbe 89c3 e2bc ce90 00be
000003f0: 98eb 063e f4bf e7bb 2d41 bf3e b542 343d
-0.31237355 -0.37371144 -0.009510855 -0.26492435 -0.0043400098 -0.16590129 -0.03999438 -0.32067522
0.10465147 0.057765923 0.31005666 0.24474911 -0.07896671 -0.048363406 0.27508718 0.28572473
-0.03962406 -0.18814339 -0.3580945 0.023206286 -0.19939016 -0.19179611 -0.39322928 0.24177338
0.1687467 0.14856435 0.15236704 0.0051563876 -0.16642006 -0.4970778 0.01566664 -0.14587711
-0.129549 0.15761898 1.0016409 -0.053795252 -0.15111458 0.18934779 -0.1449199 -0.07023851
0.4976687 0.010357118 -0.055413045 -0.22121574 -0.11944553 -0.09093625 0.13526346 0.12750244
0.0050192773 0.055282302 -0.5119162 -0.3162241 -0.14204405 -0.07379566 -0.13644418 -0.0072191884
0.16317683 0.07905931 0.26144558 -0.24709605 -0.2299038 0.13306865 -0.016163098 0.28362206
-0.06983417 0.03585814 0.11126827 -0.47393143 0.11880002 -0.14624861 0.34786707 0.005289708
-0.14850764 0.017648006 -0.059734095 0.018796314 -0.17377652 0.04470349 -0.29146892 -0.26557586
0.1783622 -0.058845848 -0.47220695 0.08544589 0.19108537 -0.016246878 -0.12412775 -0.2823804
-0.09415321 -0.2586656 -0.13349825 0.04395206 -0.14106032 0.0034550875 0.09678811 -0.06610274
0.12794124 -0.43506294 -0.1465467 0.15767802 -0.17460306 -0.06897708 0.09246329 -0.30912474
-0.14100467 0.22285315 -0.18928373 -0.44879043 0.16916339 0.05888554 -0.14868034 0.31730098
0.28404254 0.02874044 0.034198392 -0.19187008 -0.069733776 -0.06803364 -0.10684561 0.19206391
0.058232438 0.01099028 -0.050462876 -0.09418581 -0.020119552 -0.008559807 0.14757279 -0.026847005
0.017642755 -0.41946474 0.05476947 -0.3096027 0.4864033 -0.14014412 -0.2848556 0.007350628
0.23427126 -0.01023056 0.09902474 -0.021878213 -0.064344734 -0.021359988 -0.16173348 -0.08828125
0.4154394 -0.15373945 -0.36712298 0.2604434 0.028582487 -0.006115854 -0.11965309 -0.27773723
-0.11166935 -0.1456777 0.1533115 -0.16059719 0.019377183 0.21771404 -0.14084545 0.029315455
0.4799283 0.122495785 0.19155264 -0.19383304 0.039214797 -0.21452536 -0.20138957 -0.30854875
0.32218063 -0.24672616 -0.11178068 -0.29373893 0.038877282 -0.05290088 -0.19918317 -0.16498636
0.11676993 -0.43098778 -0.05982831 -0.21655343 0.08667665 0.12234241 -0.20760745 0.39037952
-0.03797398 0.121093854 -0.26071706 0.13558117 -0.1274966 -0.042545836 -0.3194803 0.0805111
0.069920704 0.19330122 -0.16350637 0.011366655 -0.22277291 -0.08157334 -0.011619775 0.030514488
-0.2716326 -0.3308189 -0.22047272 -0.18852463 0.07248609 0.24092905 0.018452235 -0.2547414
-0.09265829 0.21972418 0.34708604 -0.11391667 -0.29932788 -0.22066395 -0.17187774 0.02617311
-0.15478696 0.088617794 -0.13623731 -0.20660272 0.09614909 -0.19264577 -0.17241862 0.25188556
-0.062368236 -0.026531143 0.37667066 0.05470541 0.261631 -0.0069900546 0.04617059 0.019232357
0.31533435 -0.13777708 -0.35589418 0.29611772 0.10574912 0.05497268 0.22380391 0.11934334
0.005727355 -0.14386132 0.18326071 -0.3613231 -0.18042561 0.43769488 -0.23237808 -0.1125024
-0.42460933 -0.16960928 -0.027681129 -0.12555239 0.1317581 -0.007072443 0.37354413 0.04400893

bias f4 [128]
00000000: 8503 23bb 948b 493b ab36 53bc e43b 633c
00000010: 3367 a23b 6b37 8aba 6c88 1bbb e899 543a
00000020: 8898 f1ba 1133 903b f76c 36bc df14 0e3c
00000030: a5f9 0f3b fa47 65bb ffe6 fdba ba2f 1bbc
00000040: ba1f a9bb 5051 133b 2e62 9339 5f53 24bb
00000050: 9922 2dbc fae4 21bb 8b22 55bb eafb e2ba
00000060: 73be fcba 2d51 9a3b 29bc e7bb 5132 07bc
00000070: 3088 66bb 2eae 62bb 6aba 23bb c64d a33b
00000080: b73a 6cbb 0af9 b8bb 899b a5bb fd59 293a
00000090: 6651 a43a 79d2 0bbb 1496 fe3b cf7c 53bb
000000a0: 20bf 9ebb 7815 1bbc bc70 af3b 4124 413b
000000b0: b5f5 27bb 6323 06bc 36c5 3fba 75c7 9939
000000c0: 3e25 afbb 0a4a 23bb a659 453b a33f 07bc
000000d0: 765e 4fbb 508c 73bb 4890 50bb 0ef6 73bb
000000e0: ca88 c6bb 3774 523c a41f 9a3b 304b 7a3b
000000f0: 8b84 35b9 4d82 193b edf0 233c 0c4e 8d3b
00000100: e5c2 55bc 0afe c03a 1882 d33b dffc 0c3b
00000110: fb3b 163c e7fa dcba 425a 0cba f2e3 65bb
00000120: 0f6e 8e3b 8706 aebb 0e40 74bb 9346 d1ba
00000130: d289 bfbb 1a26 82b9 b031 793a 3b26 58bb
00000140: 3daa 89ba d751 9a3b 18c7 673b 5d12 afba
00000150: 8f72 6ebb fe86 6cbb cc6e aabb 292f 3eba
00000160: e252 03bc 38f2 32bb 1933 813b 08ae 10ba
00000170: d477 603b 471a 82bb b256 7fb9 7cd5 0eba
00000180: 40ac 81bb 466c cdbc dab3 023c d342 d03b
00000190: c4f0 603b 2618 e53b a15a 5b3c c254 3abb
000001a0: 7a05 d93a 9060 fc3b 7688 bc3a b7de 86ba
000001b0: 32a5 25ba 8814 3dbb 4669 b2ba 4fe0 0a3c
000001c0: 9708 353c e5f9 c039 183b 8fbb e82c 38bb
000001d0: 459c 373b 4482 2f3c bdc1 e5bb 0536 783b
000001e0: b1b1 e6b8 6e24 39b8 89fe 52b9 c3b0 a7bb
000001f0: 9e57 493a 2af4 26bb 8850 3cba c398 84bb
-0.0024873924 0.003075336 -0.012891452 0.0138692595 0.00495615 -0.001054508 -0.0023732437 0.0008110092
-0.0018432299 0.004400619 -0.011134378 0.008671968 0.0021968868 -0.0034985528 -0.001937121 -0.009471828
-0.005161253 0.0022478886 0.00028111174 -0.0025074107 -0.010567331 -0.002470313 -0.003252181 -0.0017317508
-0.0019282833 0.004709384 -0.007071991 -0.008251742 -0.003517639 -0.0034588682 -0.0024982938 0.0049836366
-0.003604574 -0.005644922 -0.0050539416 0.00064602477 0.0012536466 -0.0021335168 0.0077693556 -0.0032270437
-0.004844561 -0.009465568 0.005354015 0.0029471072 -0.002562863 -0.008187148 -0.00073154585 0.0002933104
-0.005345016 -0.0024915957 0.003011325 -0.008254918 -0.0031641996 -0.003716249 -0.003182428 -0.0037225517
-0.006058787 0.012845091 0.004703479 0.0038191788 -0.00017310881 0.0023423613 0.010006172 0.0043122824
-0.013046955 0.0014724147 0.0064547174 0.0021513028 0.009169574 -0.0016859443 -0.00053540256 -0.0035078493
0.004346616 -0.0053108367 -0.0037269625 -0.0015966467 -0.005845287 -0.0002482392 0.0009506 -0.0032981772
-0.0010503005 0.004709463 0.0035366472 -0.0013356913 -0.00363842 -0.0036091204 -0.0052011963 -0.0007254952
-0.008015366 -0.0027305018 0.003942859 -0.0005519097 0.003425111 -0.0039704177 -0.00024350992 -0.0005448682
-0.0039573014 -0.025076043 0.00797745 0.0063556223 0.0034323195 0.006991404 0.013388307 -0.0028431867
0.0016557418 0.007701941 0.001438393 -0.0010289763 -0.00063188665 -0.002885135 -0.0013611696 0.008476331
0.011049411 0.0003680728 -0.004371058 -0.0028102938 0.0028016728 0.01071221 -0.007011621 0.0037873995
-0.00011000352 -4.4141365e-05 -0.00020121982 -0.005117507 0.00076805975 -0.0025475123 -0.0007183631 -0.004046531

weight f4 [128]
00000000: cfec 2e3f 095d 353f 82d0 333f cf00 f83e
00000010: 00d0 1d3f 10ca 783f c901 813f 9fe1 5a3f
00000020: e238 553f 030f 3b3f 0417 773f 5b02 343f
00000030: a57c 293f 4bd5 183f f71f 3c3f 9007 043f
00000040: bbd0 0e3f 8113 f33e 2e2e 073f d66e 1a3f
00000050: a1c4 193f 3d1b 373f 015d 7b3f bf33 143f
00000060: 9c9e 2d3f 9a9b 0e3f f3a5 543f d858 783f
00000070: 3a55 213f 4069 1a3f 37b0 133f 66aa 523f
00000080: 763b 043f aba8 213f 2c06 723f 2273 3c3f
00000090: e49b 343f eb72 3f3f 9e68 1e3f 244a 013f
000000a0: 2864 713f 32af 403f 47ab 2e3f a32f 363f
000000b0: 29e5 293f 5692 393f 0e85 053f 6cab 693f
000000c0: 61d6 1e3f 2cd6 ef3e 5ee4 253f e8e7 483f
000000d0: 3e39 3e3f 170a 2b3f 83e9 0c3f 6aa7 133f
000000e0: 20da 693f 4106 643f a983 393f 1ca1 2b3f
000000f0: e664 593f 00cf 723f 539c 113f 5355 1c3f
00000100: dc3b 1d3f 6aeb f23e 6ef2 0c3f b6eb 703f
00000110: 4a0e 4b3f d931 7f3f a743 1d3f 53b9 643f
00000120: be86 3c3f 0ff8 4e3f 976e 353f d8bb 2a3f
00000130: c360 0a3f ea08 193f 81aa 803f a043 083f
00000140: 8b8d f23e 161b 5c3f da6f 143f 7134 1d3f
00000150: f3f2 1e3f 06b2 073f 03cc 2e3f 12e7 603f
00000160: 2b5c 1f3f 79cb 323f b715 3c3f c072 f63e
00000170: c55b 123f a428 3f3f 5583 133f e2c7 243f
00000180: 24eb 4f3f 583e 3f3f 481d 6c3f bfbe 023f
00000190: fc31 483f ad62 693f f654 4e3f b142 033f
000001a0: a3b0 ee3e c93c 373f 82b0 f63e 9dab 053f
000001b0: 28f4 1c3f 6305 263f 855f 3a3f 5383 ec3e
000001c0: 9561 093f e9cb 6c3f e13e 513f 8946 2f3f
000001d0: 1baa 3f3f 1f3d 803f 6eef 223f 3949 173f
000001e0: 6935 313f 3fa9 4b3f a0d4 483f 651f 0d3f
000001f0: 3a68 f83e 8eb0 233f e9e9 403f fbec 503f
0.6833009 0.70845085 0.7024003 0.48438117 0.6164551 0.9718332 1.007867 0.8550052
0.8328992 0.7306978 0.96519494 0.70316094 0.6620582 0.5970046 0.73486274 0.5157404
0.5578725 0.47475818 0.5280484 0.6032537 0.60065657 0.7152594 0.9818879 0.5789146
0.67820144 0.5570618 0.8306572 0.97010565 0.6302067 0.6031685 0.5769076 0.8229126
0.5165323 0.6314799 0.9454067 0.7361318 0.7055037 0.74784726 0.61878383 0.50503755
0.9429345 0.75267327 0.682301 0.7116644 0.66365296 0.72488916 0.5215615 0.91277194
0.62045866 0.46843088 0.64801586 0.7847886 0.74306095 0.6681227 0.5504381 0.5767733
0.9134846 0.8907204 0.7246652 0.6704271 0.84919584 0.94847107 0.56879157 0.61067694
0.61419463 0.47445232 0.5505742 0.94109666 0.7931868 0.99685436 0.61431354 0.8934528
0.736431 0.8084726 0.7087187 0.66692877 0.54053897 0.59779227 1.0052034 0.5322819
0.47373614 0.8597883 0.5798317 0.61408144 0.6208946 0.5300602 0.6828005 0.87852585
0.6225001 0.69841725 0.73470634 0.48134422 0.5717128 0.7467139 0.5762227 0.64367497
0.8121817 0.74704504 0.9223218 0.51072305 0.7820127 0.9116619 0.8059839 0.5127364
0.46619138 0.71577126 0.4818154 0.52214986 0.6131005 0.6485197 0.72802 0.46193942
0.53664523 0.9249864 0.8173657 0.68467003 0.74868935 1.0018653 0.6364659 0.59096104
0.6922212 0.79555124 0.7844944 0.5512603 0.4851702 0.63941276 0.7535692 0.81611603
